node {
  name: "x"
  op: "Placeholder"
  attr {
    key: "dtype"
    value {
      type: DT_FLOAT
    }
  }
  attr {
    key: "shape"
    value {
      shape {
        dim {
          size: -1
        }
        dim {
          size: 224
        }
        dim {
          size: 224
        }
        dim {
          size: 3
        }
      }
    }
  }
}
node {
  name: "sequential/conv2d/Conv2D/ReadVariableOp/resource"
  op: "Const"
  attr {
    key: "dtype"
    value {
      type: DT_FLOAT
    }
  }
  attr {
    key: "value"
    value {
      tensor {
        dtype: DT_FLOAT
        tensor_shape {
          dim {
            size: 3
          }
          dim {
            size: 3
          }
          dim {
            size: 3
          }
          dim {
            size: 4
          }
        }
        tensor_content: "…"
      }
    }
  }
}
node {
  name: "sequential/conv2d/Conv2D/ReadVariableOp"
  op: "Identity"
  input: "sequential/conv2d/Conv2D/ReadVariableOp/resource"
  attr {
    key: "T"
    value {
      type: DT_FLOAT
    }
  }
}
node {
  name: "sequential/conv2d/Conv2D"
  op: "Conv2D"
  input: "x"
  input: "sequential/conv2d/Conv2D/ReadVariableOp"
  attr {
    key: "T"
    value {
      type: DT_FLOAT
    }
  }
  attr {
    key: "data_format"
    value {
      s: "NHWC"
    }
  }
  attr {
    key: "dilations"
    value {
      list {
        i: 1
        i: 1
        i: 1
        i: 1
      }
    }
  }
  attr {
    key: "explicit_paddings"
    value {
      list {
      }
    }
  }
  attr {
    key: "padding"
    value {
      s: "SAME"
    }
  }
  attr {
    key: "strides"
    value {
      list {
        i: 1
        i: 1
        i: 1
        i: 1
      }
    }
  }
  attr {
    key: "use_cudnn_on_gpu"
    value {
      b: true
    }
  }
}
node {
  name: "sequential/conv2d/BiasAdd/ReadVariableOp/resource"
  op: "Const"
  attr {
    key: "dtype"
    value {
      type: DT_FLOAT
    }
  }
  attr {
    key: "value"
    value {
      tensor {
        dtype: DT_FLOAT
        tensor_shape {
          dim {
            size: 4
          }
        }
        tensor_content: "\211\301}<\177\276u\275\017v\016\274\223\341u\275"
      }
    }
  }
}
node {
  name: "sequential/conv2d/BiasAdd/ReadVariableOp"
  op: "Identity"
  input: "sequential/conv2d/BiasAdd/ReadVariableOp/resource"
  attr {
    key: "T"
    value {
      type: DT_FLOAT
    }
  }
}
node {
  name: "sequential/conv2d/BiasAdd"
  op: "BiasAdd"
  input: "sequential/conv2d/Conv2D"
  input: "sequential/conv2d/BiasAdd/ReadVariableOp"
  attr {
    key: "T"
    value {
      type: DT_FLOAT
    }
  }
  attr {
    key: "data_format"
    value {
      s: "NHWC"
    }
  }
}
node {
  name: "sequential/conv2d/Relu"
  op: "Relu"
  input: "sequential/conv2d/BiasAdd"
  attr {
    key: "T"
    value {
      type: DT_FLOAT
    }
  }
}
node {
  name: "Func/sequential/module_wrapper/PartitionedCall/input/_0"
  op: "Identity"
  input: "sequential/conv2d/Relu"
  attr {
    key: "T"
    value {
      type: DT_FLOAT
    }
  }
}
node {
  name: "Func/sequential/module_wrapper/PartitionedCall/PartitionedCall/input/_22"
  op: "Identity"
  input: "Func/sequential/module_wrapper/PartitionedCall/input/_0"
  attr {
    key: "T"
    value {
      type: DT_FLOAT
    }
  }
}
node {
  name: "sequential/module_wrapper/PartitionedCall/PartitionedCall/average_pooling2d/AvgPool"
  op: "AvgPool"
  input: "Func/sequential/module_wrapper/PartitionedCall/PartitionedCall/input/_22"
  attr {
    key: "T"
    value {
      type: DT_FLOAT
    }
  }
  attr {
    key: "data_format"
    value {
      s: "NHWC"
    }
  }
  attr {
    key: "ksize"
    value {
      list {
        i: 1
        i: 4
        i: 4
        i: 1
      }
    }
  }
  attr {
    key: "padding"
    value {
      s: "VALID"
    }
  }
  attr {
    key: "strides"
    value {
      list {
        i: 1
        i: 4
        i: 4
        i: 1
      }
    }
  }
}
node {
  name: "sequential/module_wrapper/PartitionedCall/PartitionedCall/Identity"
  op: "Identity"
  input: "sequential/module_wrapper/PartitionedCall/PartitionedCall/average_pooling2d/AvgPool"
  attr {
    key: "T"
    value {
      type: DT_FLOAT
    }
  }
}
node {
  name: "Func/sequential/module_wrapper/PartitionedCall/PartitionedCall/output/_23"
  op: "Identity"
  input: "sequential/module_wrapper/PartitionedCall/PartitionedCall/Identity"
  attr {
    key: "T"
    value {
      type: DT_FLOAT
    }
  }
}
node {
  name: "sequential/module_wrapper/PartitionedCall/Identity"
  op: "Identity"
  input: "Func/sequential/module_wrapper/PartitionedCall/PartitionedCall/output/_23"
  attr {
    key: "T"
    value {
      type: DT_FLOAT
    }
  }
}
node {
  name: "Func/sequential/module_wrapper/PartitionedCall/output/_1"
  op: "Identity"
  input: "sequential/module_wrapper/PartitionedCall/Identity"
  attr {
    key: "T"
    value {
      type: DT_FLOAT
    }
  }
}
node {
  name: "Func/sequential/module_wrapper_1/PartitionedCall/input/_2"
  op: "Identity"
  input: "Func/sequential/module_wrapper/PartitionedCall/output/_1"
  attr {
    key: "T"
    value {
      type: DT_FLOAT
    }
  }
}
node {
  name: "Func/sequential/module_wrapper_1/PartitionedCall/PartitionedCall/input/_24"
  op: "Identity"
  input: "Func/sequential/module_wrapper_1/PartitionedCall/input/_2"
  attr {
    key: "T"
    value {
      type: DT_FLOAT
    }
  }
}
node {
  name: "sequential/module_wrapper_1/PartitionedCall/PartitionedCall/dropout/Identity"
  op: "Identity"
  input: "Func/sequential/module_wrapper_1/PartitionedCall/PartitionedCall/input/_24"
  attr {
    key: "T"
    value {
      type: DT_FLOAT
    }
  }
}
node {
  name: "sequential/module_wrapper_1/PartitionedCall/PartitionedCall/Identity"
  op: "Identity"
  input: "sequential/module_wrapper_1/PartitionedCall/PartitionedCall/dropout/Identity"
  attr {
    key: "T"
    value {
      type: DT_FLOAT
    }
  }
}
node {
  name: "Func/sequential/module_wrapper_1/PartitionedCall/PartitionedCall/output/_25"
  op: "Identity"
  input: "sequential/module_wrapper_1/PartitionedCall/PartitionedCall/Identity"
  attr {
    key: "T"
    value {
      type: DT_FLOAT
    }
  }
}
node {
  name: "sequential/module_wrapper_1/PartitionedCall/Identity"
  op: "Identity"
  input: "Func/sequential/module_wrapper_1/PartitionedCall/PartitionedCall/output/_25"
  attr {
    key: "T"
    value {
      type: DT_FLOAT
    }
  }
}
node {
  name: "Func/sequential/module_wrapper_1/PartitionedCall/output/_3"
  op: "Identity"
  input: "sequential/module_wrapper_1/PartitionedCall/Identity"
  attr {
    key: "T"
    value {
      type: DT_FLOAT
    }
  }
}
node {
  name: "sequential/conv2d_1/Conv2D/ReadVariableOp/resource"
  op: "Const"
  attr {
    key: "dtype"
    value {
      type: DT_FLOAT
    }
  }
  attr {
    key: "value"
    value {
      tensor {
        dtype: DT_FLOAT
        tensor_shape {
          dim {
            size: 5
          }
          dim {
            size: 5
          }
          dim {
            size: 4
          }
          dim {
            size: 4
          }
        }
        tensor_content: "…"
      }
    }
  }
}
node {
  name: "sequential/conv2d_1/Conv2D/ReadVariableOp"
  op: "Identity"
  input: "sequential/conv2d_1/Conv2D/ReadVariableOp/resource"
  attr {
    key: "T"
    value {
      type: DT_FLOAT
    }
  }
}
node {
  name: "sequential/conv2d_1/Conv2D"
  op: "Conv2D"
  input: "Func/sequential/module_wrapper_1/PartitionedCall/output/_3"
  input: "sequential/conv2d_1/Conv2D/ReadVariableOp"
  attr {
    key: "T"
    value {
      type: DT_FLOAT
    }
  }
  attr {
    key: "data_format"
    value {
      s: "NHWC"
    }
  }
  attr {
    key: "dilations"
    value {
      list {
        i: 1
        i: 1
        i: 1
        i: 1
      }
    }
  }
  attr {
    key: "explicit_paddings"
    value {
      list {
      }
    }
  }
  attr {
    key: "padding"
    value {
      s: "SAME"
    }
  }
  attr {
    key: "strides"
    value {
      list {
        i: 1
        i: 1
        i: 1
        i: 1
      }
    }
  }
  attr {
    key: "use_cudnn_on_gpu"
    value {
      b: true
    }
  }
}
node {
  name: "sequential/conv2d_1/BiasAdd/ReadVariableOp/resource"
  op: "Const"
  attr {
    key: "dtype"
    value {
      type: DT_FLOAT
    }
  }
  attr {
    key: "value"
    value {
      tensor {
        dtype: DT_FLOAT
        tensor_shape {
          dim {
            size: 4
          }
        }
        tensor_content: "!9^\276\352\3665\275\261\260\032\275/\230\246\274"
      }
    }
  }
}
node {
  name: "sequential/conv2d_1/BiasAdd/ReadVariableOp"
  op: "Identity"
  input: "sequential/conv2d_1/BiasAdd/ReadVariableOp/resource"
  attr {
    key: "T"
    value {
      type: DT_FLOAT
    }
  }
}
node {
  name: "sequential/conv2d_1/BiasAdd"
  op: "BiasAdd"
  input: "sequential/conv2d_1/Conv2D"
  input: "sequential/conv2d_1/BiasAdd/ReadVariableOp"
  attr {
    key: "T"
    value {
      type: DT_FLOAT
    }
  }
  attr {
    key: "data_format"
    value {
      s: "NHWC"
    }
  }
}
node {
  name: "sequential/conv2d_1/Relu"
  op: "Relu"
  input: "sequential/conv2d_1/BiasAdd"
  attr {
    key: "T"
    value {
      type: DT_FLOAT
    }
  }
}
node {
  name: "Func/sequential/module_wrapper_2/PartitionedCall/input/_4"
  op: "Identity"
  input: "sequential/conv2d_1/Relu"
  attr {
    key: "T"
    value {
      type: DT_FLOAT
    }
  }
}
node {
  name: "Func/sequential/module_wrapper_2/PartitionedCall/PartitionedCall/input/_26"
  op: "Identity"
  input: "Func/sequential/module_wrapper_2/PartitionedCall/input/_4"
  attr {
    key: "T"
    value {
      type: DT_FLOAT
    }
  }
}
node {
  name: "sequential/module_wrapper_2/PartitionedCall/PartitionedCall/average_pooling2d_1/AvgPool"
  op: "AvgPool"
  input: "Func/sequential/module_wrapper_2/PartitionedCall/PartitionedCall/input/_26"
  attr {
    key: "T"
    value {
      type: DT_FLOAT
    }
  }
  attr {
    key: "data_format"
    value {
      s: "NHWC"
    }
  }
  attr {
    key: "ksize"
    value {
      list {
        i: 1
        i: 4
        i: 4
        i: 1
      }
    }
  }
  attr {
    key: "padding"
    value {
      s: "VALID"
    }
  }
  attr {
    key: "strides"
    value {
      list {
        i: 1
        i: 4
        i: 4
        i: 1
      }
    }
  }
}
node {
  name: "sequential/module_wrapper_2/PartitionedCall/PartitionedCall/Identity"
  op: "Identity"
  input: "sequential/module_wrapper_2/PartitionedCall/PartitionedCall/average_pooling2d_1/AvgPool"
  attr {
    key: "T"
    value {
      type: DT_FLOAT
    }
  }
}
node {
  name: "Func/sequential/module_wrapper_2/PartitionedCall/PartitionedCall/output/_27"
  op: "Identity"
  input: "sequential/module_wrapper_2/PartitionedCall/PartitionedCall/Identity"
  attr {
    key: "T"
    value {
      type: DT_FLOAT
    }
  }
}
node {
  name: "sequential/module_wrapper_2/PartitionedCall/Identity"
  op: "Identity"
  input: "Func/sequential/module_wrapper_2/PartitionedCall/PartitionedCall/output/_27"
  attr {
    key: "T"
    value {
      type: DT_FLOAT
    }
  }
}
node {
  name: "Func/sequential/module_wrapper_2/PartitionedCall/output/_5"
  op: "Identity"
  input: "sequential/module_wrapper_2/PartitionedCall/Identity"
  attr {
    key: "T"
    value {
      type: DT_FLOAT
    }
  }
}
node {
  name: "sequential/conv2d_2/Conv2D/ReadVariableOp/resource"
  op: "Const"
  attr {
    key: "dtype"
    value {
      type: DT_FLOAT
    }
  }
  attr {
    key: "value"
    value {
      tensor {
        dtype: DT_FLOAT
        tensor_shape {
          dim {
            size: 5
          }
          dim {
            size: 5
          }
          dim {
            size: 4
          }
          dim {
            size: 4
          }
        }
        tensor_content: "…"
      }
    }
  }
}
node {
  name: "sequential/conv2d_2/Conv2D/ReadVariableOp"
  op: "Identity"
  input: "sequential/conv2d_2/Conv2D/ReadVariableOp/resource"
  attr {
    key: "T"
    value {
      type: DT_FLOAT
    }
  }
}
node {
  name: "sequential/conv2d_2/Conv2D"
  op: "Conv2D"
  input: "Func/sequential/module_wrapper_2/PartitionedCall/output/_5"
  input: "sequential/conv2d_2/Conv2D/ReadVariableOp"
  attr {
    key: "T"
    value {
      type: DT_FLOAT
    }
  }
  attr {
    key: "data_format"
    value {
      s: "NHWC"
    }
  }
  attr {
    key: "dilations"
    value {
      list {
        i: 1
        i: 1
        i: 1
        i: 1
      }
    }
  }
  attr {
    key: "explicit_paddings"
    value {
      list {
      }
    }
  }
  attr {
    key: "padding"
    value {
      s: "SAME"
    }
  }
  attr {
    key: "strides"
    value {
      list {
        i: 1
        i: 1
        i: 1
        i: 1
      }
    }
  }
  attr {
    key: "use_cudnn_on_gpu"
    value {
      b: true
    }
  }
}
node {
  name: "sequential/conv2d_2/BiasAdd/ReadVariableOp/resource"
  op: "Const"
  attr {
    key: "dtype"
    value {
      type: DT_FLOAT
    }
  }
  attr {
    key: "value"
    value {
      tensor {
        dtype: DT_FLOAT
        tensor_shape {
          dim {
            size: 4
          }
        }
        tensor_content: "Mq\377\275\277\243W\276\247\362\361=\227\211\202\275"
      }
    }
  }
}
node {
  name: "sequential/conv2d_2/BiasAdd/ReadVariableOp"
  op: "Identity"
  input: "sequential/conv2d_2/BiasAdd/ReadVariableOp/resource"
  attr {
    key: "T"
    value {
      type: DT_FLOAT
    }
  }
}
node {
  name: "sequential/conv2d_2/BiasAdd"
  op: "BiasAdd"
  input: "sequential/conv2d_2/Conv2D"
  input: "sequential/conv2d_2/BiasAdd/ReadVariableOp"
  attr {
    key: "T"
    value {
      type: DT_FLOAT
    }
  }
  attr {
    key: "data_format"
    value {
      s: "NHWC"
    }
  }
}
node {
  name: "sequential/conv2d_2/Relu"
  op: "Relu"
  input: "sequential/conv2d_2/BiasAdd"
  attr {
    key: "T"
    value {
      type: DT_FLOAT
    }
  }
}
node {
  name: "Func/sequential/module_wrapper_3/PartitionedCall/input/_6"
  op: "Identity"
  input: "sequential/conv2d_2/Relu"
  attr {
    key: "T"
    value {
      type: DT_FLOAT
    }
  }
}
node {
  name: "Func/sequential/module_wrapper_3/PartitionedCall/PartitionedCall/input/_28"
  op: "Identity"
  input: "Func/sequential/module_wrapper_3/PartitionedCall/input/_6"
  attr {
    key: "T"
    value {
      type: DT_FLOAT
    }
  }
}
node {
  name: "sequential/module_wrapper_3/PartitionedCall/PartitionedCall/average_pooling2d_2/AvgPool"
  op: "AvgPool"
  input: "Func/sequential/module_wrapper_3/PartitionedCall/PartitionedCall/input/_28"
  attr {
    key: "T"
    value {
      type: DT_FLOAT
    }
  }
  attr {
    key: "data_format"
    value {
      s: "NHWC"
    }
  }
  attr {
    key: "ksize"
    value {
      list {
        i: 1
        i: 2
        i: 2
        i: 1
      }
    }
  }
  attr {
    key: "padding"
    value {
      s: "VALID"
    }
  }
  attr {
    key: "strides"
    value {
      list {
        i: 1
        i: 2
        i: 2
        i: 1
      }
    }
  }
}
node {
  name: "sequential/module_wrapper_3/PartitionedCall/PartitionedCall/Identity"
  op: "Identity"
  input: "sequential/module_wrapper_3/PartitionedCall/PartitionedCall/average_pooling2d_2/AvgPool"
  attr {
    key: "T"
    value {
      type: DT_FLOAT
    }
  }
}
node {
  name: "Func/sequential/module_wrapper_3/PartitionedCall/PartitionedCall/output/_29"
  op: "Identity"
  input: "sequential/module_wrapper_3/PartitionedCall/PartitionedCall/Identity"
  attr {
    key: "T"
    value {
      type: DT_FLOAT
    }
  }
}
node {
  name: "sequential/module_wrapper_3/PartitionedCall/Identity"
  op: "Identity"
  input: "Func/sequential/module_wrapper_3/PartitionedCall/PartitionedCall/output/_29"
  attr {
    key: "T"
    value {
      type: DT_FLOAT
    }
  }
}
node {
  name: "Func/sequential/module_wrapper_3/PartitionedCall/output/_7"
  op: "Identity"
  input: "sequential/module_wrapper_3/PartitionedCall/Identity"
  attr {
    key: "T"
    value {
      type: DT_FLOAT
    }
  }
}
node {
  name: "Func/sequential/module_wrapper_4/PartitionedCall/input/_8"
  op: "Identity"
  input: "Func/sequential/module_wrapper_3/PartitionedCall/output/_7"
  attr {
    key: "T"
    value {
      type: DT_FLOAT
    }
  }
}
node {
  name: "Func/sequential/module_wrapper_4/PartitionedCall/PartitionedCall/input/_30"
  op: "Identity"
  input: "Func/sequential/module_wrapper_4/PartitionedCall/input/_8"
  attr {
    key: "T"
    value {
      type: DT_FLOAT
    }
  }
}
node {
  name: "sequential/module_wrapper_4/PartitionedCall/PartitionedCall/flatten/Const"
  op: "Const"
  attr {
    key: "dtype"
    value {
      type: DT_INT32
    }
  }
  attr {
    key: "value"
    value {
      tensor {
        dtype: DT_INT32
        tensor_shape {
          dim {
            size: 2
          }
        }
        tensor_content: "\377\377\377\377\304\000\000\000"
      }
    }
  }
}
node {
  name: "sequential/module_wrapper_4/PartitionedCall/PartitionedCall/flatten/Reshape"
  op: "Reshape"
  input: "Func/sequential/module_wrapper_4/PartitionedCall/PartitionedCall/input/_30"
  input: "sequential/module_wrapper_4/PartitionedCall/PartitionedCall/flatten/Const"
  attr {
    key: "T"
    value {
      type: DT_FLOAT
    }
  }
  attr {
    key: "Tshape"
    value {
      type: DT_INT32
    }
  }
}
node {
  name: "sequential/module_wrapper_4/PartitionedCall/PartitionedCall/Identity"
  op: "Identity"
  input: "sequential/module_wrapper_4/PartitionedCall/PartitionedCall/flatten/Reshape"
  attr {
    key: "T"
    value {
      type: DT_FLOAT
    }
  }
}
node {
  name: "Func/sequential/module_wrapper_4/PartitionedCall/PartitionedCall/output/_31"
  op: "Identity"
  input: "sequential/module_wrapper_4/PartitionedCall/PartitionedCall/Identity"
  attr {
    key: "T"
    value {
      type: DT_FLOAT
    }
  }
}
node {
  name: "sequential/module_wrapper_4/PartitionedCall/Identity"
  op: "Identity"
  input: "Func/sequential/module_wrapper_4/PartitionedCall/PartitionedCall/output/_31"
  attr {
    key: "T"
    value {
      type: DT_FLOAT
    }
  }
}
node {
  name: "Func/sequential/module_wrapper_4/PartitionedCall/output/_9"
  op: "Identity"
  input: "sequential/module_wrapper_4/PartitionedCall/Identity"
  attr {
    key: "T"
    value {
      type: DT_FLOAT
    }
  }
}
node {
  name: "Func/sequential/module_wrapper_5/StatefulPartitionedCall/input_control_node/_10"
  op: "NoOp"
  input: "^Func/sequential/module_wrapper_4/PartitionedCall/output/_9"
}
node {
  name: "Func/sequential/module_wrapper_5/StatefulPartitionedCall/input/_11"
  op: "Identity"
  input: "Func/sequential/module_wrapper_4/PartitionedCall/output/_9"
  input: "^Func/sequential/module_wrapper_5/StatefulPartitionedCall/input_control_node/_10"
  attr {
    key: "T"
    value {
      type: DT_FLOAT
    }
  }
}
node {
  name: "Func/sequential/module_wrapper_5/StatefulPartitionedCall/StatefulPartitionedCall/input_control_node/_32"
  op: "NoOp"
  input: "^Func/sequential/module_wrapper_5/StatefulPartitionedCall/input_control_node/_10"
}
node {
  name: "Func/sequential/module_wrapper_5/StatefulPartitionedCall/StatefulPartitionedCall/input/_33"
  op: "Identity"
  input: "Func/sequential/module_wrapper_5/StatefulPartitionedCall/input/_11"
  input: "^Func/sequential/module_wrapper_5/StatefulPartitionedCall/StatefulPartitionedCall/input_control_node/_32"
  attr {
    key: "T"
    value {
      type: DT_FLOAT
    }
  }
}
node {
  name: "sequential/module_wrapper_5/1506"
  op: "Const"
  attr {
    key: "dtype"
    value {
      type: DT_FLOAT
    }
  }
  attr {
    key: "value"
    value {
      tensor {
        dtype: DT_FLOAT
        tensor_shape {
          dim {
            size: 196
          }
          dim {
            size: 32
          }
        }
        tensor_content: "…"
      }
    }
  }
}
node {
  name: "Func/sequential/module_wrapper_5/StatefulPartitionedCall/input/_12"
  op: "Identity"
  input: "sequential/module_wrapper_5/1506"
  input: "^Func/sequential/module_wrapper_5/StatefulPartitionedCall/input_control_node/_10"
  attr {
    key: "T"
    value {
      type: DT_FLOAT
    }
  }
}
node {
  name: "Func/sequential/module_wrapper_5/StatefulPartitionedCall/StatefulPartitionedCall/input/_34"
  op: "Identity"
  input: "Func/sequential/module_wrapper_5/StatefulPartitionedCall/input/_12"
  input: "^Func/sequential/module_wrapper_5/StatefulPartitionedCall/StatefulPartitionedCall/input_control_node/_32"
  attr {
    key: "T"
    value {
      type: DT_FLOAT
    }
  }
}
node {
  name: "sequential/module_wrapper_5/StatefulPartitionedCall/StatefulPartitionedCall/dense/MatMul/ReadVariableOp"
  op: "Identity"
  input: "Func/sequential/module_wrapper_5/StatefulPartitionedCall/StatefulPartitionedCall/input/_34"
  attr {
    key: "T"
    value {
      type: DT_FLOAT
    }
  }
}
node {
  name: "sequential/module_wrapper_5/StatefulPartitionedCall/StatefulPartitionedCall/dense/MatMul"
  op: "MatMul"
  input: "Func/sequential/module_wrapper_5/StatefulPartitionedCall/StatefulPartitionedCall/input/_33"
  input: "sequential/module_wrapper_5/StatefulPartitionedCall/StatefulPartitionedCall/dense/MatMul/ReadVariableOp"
  attr {
    key: "T"
    value {
      type: DT_FLOAT
    }
  }
  attr {
    key: "transpose_a"
    value {
      b: false
    }
  }
  attr {
    key: "transpose_b"
    value {
      b: false
    }
  }
}
node {
  name: "sequential/module_wrapper_5/1508"
  op: "Const"
  attr {
    key: "dtype"
    value {
      type: DT_FLOAT
    }
  }
  attr {
    key: "value"
    value {
      tensor {
        dtype: DT_FLOAT
        tensor_shape {
          dim {
            size: 32
          }
        }
        tensor_content: "…"
      }
    }
  }
}
node {
  name: "Func/sequential/module_wrapper_5/StatefulPartitionedCall/input/_13"
  op: "Identity"
  input: "sequential/module_wrapper_5/1508"
  input: "^Func/sequential/module_wrapper_5/StatefulPartitionedCall/input_control_node/_10"
  attr {
    key: "T"
    value {
      type: DT_FLOAT
    }
  }
}
node {
  name: "Func/sequential/module_wrapper_5/StatefulPartitionedCall/StatefulPartitionedCall/input/_35"
  op: "Identity"
  input: "Func/sequential/module_wrapper_5/StatefulPartitionedCall/input/_13"
  input: "^Func/sequential/module_wrapper_5/StatefulPartitionedCall/StatefulPartitionedCall/input_control_node/_32"
  attr {
    key: "T"
    value {
      type: DT_FLOAT
    }
  }
}
node {
  name: "sequential/module_wrapper_5/StatefulPartitionedCall/StatefulPartitionedCall/dense/BiasAdd/ReadVariableOp"
  op: "Identity"
  input: "Func/sequential/module_wrapper_5/StatefulPartitionedCall/StatefulPartitionedCall/input/_35"
  attr {
    key: "T"
    value {
      type: DT_FLOAT
    }
  }
}
node {
  name: "sequential/module_wrapper_5/StatefulPartitionedCall/StatefulPartitionedCall/dense/BiasAdd"
  op: "BiasAdd"
  input: "sequential/module_wrapper_5/StatefulPartitionedCall/StatefulPartitionedCall/dense/MatMul"
  input: "sequential/module_wrapper_5/StatefulPartitionedCall/StatefulPartitionedCall/dense/BiasAdd/ReadVariableOp"
  attr {
    key: "T"
    value {
      type: DT_FLOAT
    }
  }
  attr {
    key: "data_format"
    value {
      s: "NHWC"
    }
  }
}
node {
  name: "sequential/module_wrapper_5/StatefulPartitionedCall/StatefulPartitionedCall/dense/Relu"
  op: "Relu"
  input: "sequential/module_wrapper_5/StatefulPartitionedCall/StatefulPartitionedCall/dense/BiasAdd"
  attr {
    key: "T"
    value {
      type: DT_FLOAT
    }
  }
}
node {
  name: "sequential/module_wrapper_5/StatefulPartitionedCall/StatefulPartitionedCall/Identity"
  op: "Identity"
  input: "sequential/module_wrapper_5/StatefulPartitionedCall/StatefulPartitionedCall/dense/Relu"
  input: "^sequential/module_wrapper_5/StatefulPartitionedCall/StatefulPartitionedCall/dense/BiasAdd/ReadVariableOp"
  input: "^sequential/module_wrapper_5/StatefulPartitionedCall/StatefulPartitionedCall/dense/MatMul/ReadVariableOp"
  attr {
    key: "T"
    value {
      type: DT_FLOAT
    }
  }
}
node {
  name: "Func/sequential/module_wrapper_5/StatefulPartitionedCall/StatefulPartitionedCall/output/_36"
  op: "Identity"
  input: "sequential/module_wrapper_5/StatefulPartitionedCall/StatefulPartitionedCall/Identity"
  attr {
    key: "T"
    value {
      type: DT_FLOAT
    }
  }
}
node {
  name: "Func/sequential/module_wrapper_5/StatefulPartitionedCall/StatefulPartitionedCall/output_control_node/_37"
  op: "NoOp"
  input: "^sequential/module_wrapper_5/StatefulPartitionedCall/StatefulPartitionedCall/dense/BiasAdd/ReadVariableOp"
  input: "^sequential/module_wrapper_5/StatefulPartitionedCall/StatefulPartitionedCall/dense/MatMul/ReadVariableOp"
}
node {
  name: "sequential/module_wrapper_5/StatefulPartitionedCall/Identity"
  op: "Identity"
  input: "Func/sequential/module_wrapper_5/StatefulPartitionedCall/StatefulPartitionedCall/output/_36"
  input: "^Func/sequential/module_wrapper_5/StatefulPartitionedCall/StatefulPartitionedCall/output_control_node/_37"
  attr {
    key: "T"
    value {
      type: DT_FLOAT
    }
  }
}
node {
  name: "Func/sequential/module_wrapper_5/StatefulPartitionedCall/output/_14"
  op: "Identity"
  input: "sequential/module_wrapper_5/StatefulPartitionedCall/Identity"
  attr {
    key: "T"
    value {
      type: DT_FLOAT
    }
  }
}
node {
  name: "Func/sequential/module_wrapper_6/StatefulPartitionedCall/input_control_node/_16"
  op: "NoOp"
  input: "^Func/sequential/module_wrapper_5/StatefulPartitionedCall/output/_14"
}
node {
  name: "Func/sequential/module_wrapper_6/StatefulPartitionedCall/input/_17"
  op: "Identity"
  input: "Func/sequential/module_wrapper_5/StatefulPartitionedCall/output/_14"
  input: "^Func/sequential/module_wrapper_6/StatefulPartitionedCall/input_control_node/_16"
  attr {
    key: "T"
    value {
      type: DT_FLOAT
    }
  }
}
node {
  name: "Func/sequential/module_wrapper_6/StatefulPartitionedCall/StatefulPartitionedCall/input_control_node/_38"
  op: "NoOp"
  input: "^Func/sequential/module_wrapper_6/StatefulPartitionedCall/input_control_node/_16"
}
node {
  name: "Func/sequential/module_wrapper_6/StatefulPartitionedCall/StatefulPartitionedCall/input/_39"
  op: "Identity"
  input: "Func/sequential/module_wrapper_6/StatefulPartitionedCall/input/_17"
  input: "^Func/sequential/module_wrapper_6/StatefulPartitionedCall/StatefulPartitionedCall/input_control_node/_38"
  attr {
    key: "T"
    value {
      type: DT_FLOAT
    }
  }
}
node {
  name: "sequential/module_wrapper_6/1511"
  op: "Const"
  attr {
    key: "dtype"
    value {
      type: DT_FLOAT
    }
  }
  attr {
    key: "value"
    value {
      tensor {
        dtype: DT_FLOAT
        tensor_shape {
          dim {
            size: 32
          }
          dim {
            size: 2
          }
        }
        tensor_content: "…"
      }
    }
  }
}
node {
  name: "Func/sequential/module_wrapper_6/StatefulPartitionedCall/input/_18"
  op: "Identity"
  input: "sequential/module_wrapper_6/1511"
  input: "^Func/sequential/module_wrapper_6/StatefulPartitionedCall/input_control_node/_16"
  attr {
    key: "T"
    value {
      type: DT_FLOAT
    }
  }
}
node {
  name: "Func/sequential/module_wrapper_6/StatefulPartitionedCall/StatefulPartitionedCall/input/_40"
  op: "Identity"
  input: "Func/sequential/module_wrapper_6/StatefulPartitionedCall/input/_18"
  input: "^Func/sequential/module_wrapper_6/StatefulPartitionedCall/StatefulPartitionedCall/input_control_node/_38"
  attr {
    key: "T"
    value {
      type: DT_FLOAT
    }
  }
}
node {
  name: "sequential/module_wrapper_6/StatefulPartitionedCall/StatefulPartitionedCall/dense_1/MatMul/ReadVariableOp"
  op: "Identity"
  input: "Func/sequential/module_wrapper_6/StatefulPartitionedCall/StatefulPartitionedCall/input/_40"
  attr {
    key: "T"
    value {
      type: DT_FLOAT
    }
  }
}
node {
  name: "sequential/module_wrapper_6/StatefulPartitionedCall/StatefulPartitionedCall/dense_1/MatMul"
  op: "MatMul"
  input: "Func/sequential/module_wrapper_6/StatefulPartitionedCall/StatefulPartitionedCall/input/_39"
  input: "sequential/module_wrapper_6/StatefulPartitionedCall/StatefulPartitionedCall/dense_1/MatMul/ReadVariableOp"
  attr {
    key: "T"
    value {
      type: DT_FLOAT
    }
  }
  attr {
    key: "transpose_a"
    value {
      b: false
    }
  }
  attr {
    key: "transpose_b"
    value {
      b: false
    }
  }
}
node {
  name: "sequential/module_wrapper_6/1513"
  op: "Const"
  attr {
    key: "dtype"
    value {
      type: DT_FLOAT
    }
  }
  attr {
    key: "value"
    value {
      tensor {
        dtype: DT_FLOAT
        tensor_shape {
          dim {
            size: 2
          }
        }
        tensor_content: "\330\261E\276h\331B>"
      }
    }
  }
}
node {
  name: "Func/sequential/module_wrapper_6/StatefulPartitionedCall/input/_19"
  op: "Identity"
  input: "sequential/module_wrapper_6/1513"
  input: "^Func/sequential/module_wrapper_6/StatefulPartitionedCall/input_control_node/_16"
  attr {
    key: "T"
    value {
      type: DT_FLOAT
    }
  }
}
node {
  name: "Func/sequential/module_wrapper_6/StatefulPartitionedCall/StatefulPartitionedCall/input/_41"
  op: "Identity"
  input: "Func/sequential/module_wrapper_6/StatefulPartitionedCall/input/_19"
  input: "^Func/sequential/module_wrapper_6/StatefulPartitionedCall/StatefulPartitionedCall/input_control_node/_38"
  attr {
    key: "T"
    value {
      type: DT_FLOAT
    }
  }
}
node {
  name: "sequential/module_wrapper_6/StatefulPartitionedCall/StatefulPartitionedCall/dense_1/BiasAdd/ReadVariableOp"
  op: "Identity"
  input: "Func/sequential/module_wrapper_6/StatefulPartitionedCall/StatefulPartitionedCall/input/_41"
  attr {
    key: "T"
    value {
      type: DT_FLOAT
    }
  }
}
node {
  name: "sequential/module_wrapper_6/StatefulPartitionedCall/StatefulPartitionedCall/dense_1/BiasAdd"
  op: "BiasAdd"
  input: "sequential/module_wrapper_6/StatefulPartitionedCall/StatefulPartitionedCall/dense_1/MatMul"
  input: "sequential/module_wrapper_6/StatefulPartitionedCall/StatefulPartitionedCall/dense_1/BiasAdd/ReadVariableOp"
  attr {
    key: "T"
    value {
      type: DT_FLOAT
    }
  }
  attr {
    key: "data_format"
    value {
      s: "NHWC"
    }
  }
}
node {
  name: "sequential/module_wrapper_6/StatefulPartitionedCall/StatefulPartitionedCall/dense_1/Sigmoid"
  op: "Sigmoid"
  input: "sequential/module_wrapper_6/StatefulPartitionedCall/StatefulPartitionedCall/dense_1/BiasAdd"
  attr {
    key: "T"
    value {
      type: DT_FLOAT
    }
  }
}
node {
  name: "sequential/module_wrapper_6/StatefulPartitionedCall/StatefulPartitionedCall/Identity"
  op: "Identity"
  input: "sequential/module_wrapper_6/StatefulPartitionedCall/StatefulPartitionedCall/dense_1/Sigmoid"
  input: "^sequential/module_wrapper_6/StatefulPartitionedCall/StatefulPartitionedCall/dense_1/BiasAdd/ReadVariableOp"
  input: "^sequential/module_wrapper_6/StatefulPartitionedCall/StatefulPartitionedCall/dense_1/MatMul/ReadVariableOp"
  attr {
    key: "T"
    value {
      type: DT_FLOAT
    }
  }
}
node {
  name: "Func/sequential/module_wrapper_6/StatefulPartitionedCall/StatefulPartitionedCall/output/_42"
  op: "Identity"
  input: "sequential/module_wrapper_6/StatefulPartitionedCall/StatefulPartitionedCall/Identity"
  attr {
    key: "T"
    value {
      type: DT_FLOAT
    }
  }
}
node {
  name: "Func/sequential/module_wrapper_6/StatefulPartitionedCall/StatefulPartitionedCall/output_control_node/_43"
  op: "NoOp"
  input: "^sequential/module_wrapper_6/StatefulPartitionedCall/StatefulPartitionedCall/dense_1/BiasAdd/ReadVariableOp"
  input: "^sequential/module_wrapper_6/StatefulPartitionedCall/StatefulPartitionedCall/dense_1/MatMul/ReadVariableOp"
}
node {
  name: "sequential/module_wrapper_6/StatefulPartitionedCall/Identity"
  op: "Identity"
  input: "Func/sequential/module_wrapper_6/StatefulPartitionedCall/StatefulPartitionedCall/output/_42"
  input: "^Func/sequential/module_wrapper_6/StatefulPartitionedCall/StatefulPartitionedCall/output_control_node/_43"
  attr {
    key: "T"
    value {
      type: DT_FLOAT
    }
  }
}
node {
  name: "Func/sequential/module_wrapper_6/StatefulPartitionedCall/output/_20"
  op: "Identity"
  input: "sequential/module_wrapper_6/StatefulPartitionedCall/Identity"
  attr {
    key: "T"
    value {
      type: DT_FLOAT
    }
  }
}
node {
  name: "Func/sequential/module_wrapper_5/StatefulPartitionedCall/output_control_node/_15"
  op: "NoOp"
  input: "^Func/sequential/module_wrapper_5/StatefulPartitionedCall/StatefulPartitionedCall/output_control_node/_37"
}
node {
  name: "Func/sequential/module_wrapper_6/StatefulPartitionedCall/output_control_node/_21"
  op: "NoOp"
  input: "^Func/sequential/module_wrapper_6/StatefulPartitionedCall/StatefulPartitionedCall/output_control_node/_43"
}
node {
  name: "Identity"
  op: "Identity"
  input: "Func/sequential/module_wrapper_6/StatefulPartitionedCall/output/_20"
  input: "^Func/sequential/module_wrapper_5/StatefulPartitionedCall/output_control_node/_15"
  input: "^Func/sequential/module_wrapper_6/StatefulPartitionedCall/output_control_node/_21"
  input: "^sequential/conv2d/BiasAdd/ReadVariableOp"
  input: "^sequential/conv2d/Conv2D/ReadVariableOp"
  input: "^sequential/conv2d_1/BiasAdd/ReadVariableOp"
  input: "^sequential/conv2d_1/Conv2D/ReadVariableOp"
  input: "^sequential/conv2d_2/BiasAdd/ReadVariableOp"
  input: "^sequential/conv2d_2/Conv2D/ReadVariableOp"
  attr {
    key: "T"
    value {
      type: DT_FLOAT
    }
  }
}
versions {
  producer: 716
}
